data/fairness_output/LFR/model_params/model_parmas_5.npy (npy, 608 bytes, 1 tensors)

array f8 [60]
0.1392480325946321 0.686229936599853 0.630538695041237 0.3866741474340044 0.5485842644674797 0.26388222493024976 0.31009039200904975 0.6264834657731114
0.4052874118400864 0.4568299441819755 -0.5662619967730842 0.880795463431507 0.6328440011078759 -0.8656355375320562 1.97915868267815 -0.9204642038471698
-0.44531528787786456 -0.5626592695816891 -0.4464886323994963 2.102607903312134 -0.7353646456752921 -0.5748744362182544 -1.228715092430823 -0.9609558494835436
1.9971444548831585 0.8632627011194333 0.008690570862896457 0.4764502680180668 0.4518962891690755 2.247942190821922 -2.3229047943881462 -1.5560068445316655
-2.4763159314364995 -0.5244874308712469 1.9759264559762055 -0.7629954132948096 -0.9139464919169568 -2.1628792671607644 -0.789798165509731 2.007237472559615
-0.6956751427404007 -0.33965044529991045 -1.2798490593105079 0.8501939899738953 2.0923009772045797 0.21221762903198121 -0.02931882955287896 0.0922462717932908
0.4027423517906426 2.1462288695812473 1.0528512018812288 0.9313224119703303 1.2217020914164023 1.1547436630431993 -0.020432979881838984 -0.33343944867616243
-0.3621461529905893 -1.0060088517861525 -3.157595285503344 2.024736825007489
00000000: 5e5d 0329 e1d2 c13f d270 e77b 98f5 e53f
00000010: 7411 427c 5f2d e43f ca03 5cec 44bf d83f
00000020: 069e 5f96 008e e13f 898d 8445 72e3 d03f
00000030: 5ee4 1e5f 85d8 d33f 335e 9f0d 270c e43f
00000040: 975a d59c 3af0 d93f f515 86a9 b33c dd3f
00000050: 2e75 a37a d11e e2bf 5de9 bcf7 792f ec3f
00000060: b74c 0710 4240 e43f f793 7e4c 49b3 ebbf
00000070: 4e27 7b4b a2aa ff3f 5431 9558 7174 edbf
00000080: 4008 76b1 0b80 dcbf 95a0 3403 4e01 e2bf
00000090: 3843 8c0e 4593 dcbf 414b a817 24d2 0040
000000a0: 95eb f96f 1b88 e7bf 95a4 db12 5f65 e2bf
000000b0: d778 2128 d1a8 f3bf a3d0 4d7b 26c0 eebf
000000c0: 4dc6 71be 4df4 ff3f 4f44 a519 d99f eb3f
000000d0: b020 1ead 5ccc 813f cab6 d343 297e de3f
000000e0: 598e ca69 deeb dc3f ac07 871d c9fb 0140
000000f0: 15f3 dc1b 4f95 02c0 bed9 d96e 67e5 f8bf
00000100: 19ab 20ba 7ecf 03c0 8129 58dd 99c8 e0bf
00000110: f880 3b0f 659d ff3f bc2c 635b 756a e8bf
00000120: e578 a2b6 0c3f edbf 2737 2da5 934d 01c0
00000130: 4cc3 69cd 0646 e9bf 0d98 1f85 d20e 0040
00000140: 92b9 5684 f842 e6bf 0fa3 a838 d5bc d5bf
00000150: 43e1 d801 437a f4bf 3c32 c606 ca34 eb3f
00000160: 2fdc 734b 08bd 0040 c6db 2980 f229 cb3f
00000170: 31b1 5858 c105 9ebf 5fb5 87a0 739d b73f
00000180: 7dea 69db 87c6 d93f f9a8 a40a 7a2b 0140
00000190: 9125 7a80 7ad8 f03f 9638 aea8 64cd ed3f
000001a0: 7969 017e 178c f33f 628a c07d d479 f23f
000001b0: b9c7 6811 62ec 94bf 33aa d069 1257 d5bf
000001c0: f2df dd0e 672d d7bf 5187 debc 9c18 f0bf
000001d0: d7ec 2951 c142 09c0 f44f 7338 a932 0040
