data/fairness_output/LFR/model_params/model_parmas_3.npy (npy, 608 bytes, 1 tensors)

array f8 [60]
000000 12 51 f1 fb 41 ef c2 3f 71 e0 90 04 f3 a7 cf 3f
       0.1479265670956314 0.24731290553041022
000010 47 49 0e f8 04 86 e6 3f 3b d3 14 c9 a6 5a d3 3f
       0.7038597912635759 0.3024079288182297
000020 74 c1 c2 b4 b1 00 e5 3f f7 be 87 33 35 48 e0 3f
       0.6563347368701629 0.5088144308519692
000030 dd 09 37 e2 1f 37 cf 3f 60 62 58 74 1d 1f e9 3f
       0.2438697676244165 0.7850482246750055
000040 e9 f1 3d 01 e7 14 e4 3f 51 f8 69 35 17 4e a7 3f
       0.627551557946899 0.045517659445054044
000050 12 4e b4 56 ef ef f9 3f d8 72 73 c9 e4 27 fb 3f
       1.6210778605353693 1.697239672582489
000060 50 7c 74 3f c3 2d dc bf 77 06 c7 28 a2 fd f6 3f
       -0.44029313275126913 1.4369222252720684
000070 23 e6 5a 41 69 04 f5 3f 76 d5 e0 41 a8 6d fb 3f
       1.3135769417698462 1.7142717908257885
000080 03 d1 f6 11 d8 26 09 40 03 1b ee a2 97 0e e7 bf
       3.143966808647862 -0.7205312902668485
000090 45 f8 18 ef 4f 58 ef bf 17 c1 5f 0b c6 b2 fb 3f
       -0.9795303029893679 1.7311459011362496
0000a0 1d 1e aa 62 f0 8a 0c 40 48 c4 c1 91 57 7b 1a 40
       3.567841311279848 6.62045123810919
0000b0 f0 3d df 18 d3 1c b4 bf a2 76 c9 a2 ed e5 b8 bf
       -0.07856482846477042 -0.09725842689791844
0000c0 6b 41 6e 23 ab 14 09 40 0c 79 ca eb 3a e7 f6 3f
       3.1350920455953903 1.4314526758749393
0000d0 2d b6 3d 22 92 af 09 40 cf b6 77 68 6a e1 bc 3f
       3.2107279467661756 0.11281456995467497
0000e0 1d 36 0b 53 d1 1d cf bf eb b7 9c fe f9 96 00 40
       -0.24309746317742134 2.0737190143181485
0000f0 27 51 29 81 71 ca ee 3f fb d2 d5 41 ff 74 12 40
       0.962212326305722 4.614254978824415
000100 39 6c 51 0d 54 30 ed bf 59 91 7b f1 c9 c6 f3 bf
       -0.9121494541281044 -1.2360324318807072
000110 20 e2 cc 93 ba 71 ed 3f c5 6d d6 12 5b aa f2 bf
       0.9201329123234849 -1.1665907607883679
000120 49 19 48 38 39 a6 10 40 37 8b f3 1a 15 1d f2 3f
       4.162327651405868 1.1321002056872211
000130 77 a5 df 34 01 81 d1 3f 8e 81 c2 62 1b 5a fc 3f
       0.27349882281722365 1.771998773365428
000140 42 05 24 35 e8 9d fa 3f 37 3a 57 7a 9d 32 0b 40
       1.6635515285309599 3.399714427744836
000150 5d 86 bb e4 d0 c3 ec bf ec 66 90 5d 3b 43 c5 3f
       -0.8989033191139232 0.166114254651624
000160 65 ff c8 11 43 8a 01 40 14 57 04 d8 e7 82 0a 40
       2.1925107373680697 3.3139187694859036
000170 be 4b f0 85 e4 17 17 40 6b 41 ff 64 46 75 f3 bf
       5.773332684318062 -1.2161315865706352
000180 48 4c 16 8a dd 92 d9 bf 65 cf 69 10 8f 5d 09 40
       -0.3995889519221163 3.170683029393262
000190 7e 20 4b 63 a9 67 ee 3f f7 8e ec 6c 10 00 13 40
       0.9501540126157264 4.750062658251173
0001a0 5a fc a2 14 47 d3 de 3f 99 f0 72 23 d2 a2 ea bf
       0.4816453649072564 -0.8323755924571002
0001b0 35 16 35 35 3a ec f5 3f 6e 03 c9 ac 46 c7 f9 3f
       1.3701726988232512 1.6111513852522097
0001c0 65 88 4f b8 19 96 f3 3f b8 87 e9 dd 55 4e dc 3f
       1.2241456222186795 0.44228121443859036
0001d0 23 50 4c 8e 10 d1 f3 3f 5a dc ce d9 4b 3f ec 3f
       1.2385411795157857 0.8827265981734727
