data/fairness_output/LFR/model_params/model_parmas_1.npy (npy, 608 bytes, 1 tensors)

array f8 [60]
0	0x3fe3ed222bed374e	0.6226969583455941
1	0x3fe6aba05a8a6053	0.7084504860276958
2	0x3fb6fbfe03991eea	0.0897825964722149
3	0x3fdcfbafa3c327e8	0.4528616999856454
4	0x3faabf48bd3fd2f5	0.05224063215420031
5	0x3fd633611bb78666	0.3468859453842924
6	0x3fd29dee29cacc25	0.2908893020750745
7	0x3fec9fab307057e6	0.8944908090659254
8	0x3fe557975c8a8e75	0.6669422919698734
9	0x3fcf9006331eed84	0.2465827703107203
10	0xbfcf9e83c47bd988	-0.2470249852555748
11	0x3ff879c6cab1927d	1.5297305982323046
12	0x3fef150f15bf24f9	0.9713206696261799
13	0xbfeee2fec15204bf	-0.9652093673504608
14	0x40013538094e381f	2.150985787105142
15	0x3fe4059155e7e0af	0.6256796529624092
16	0xbfc02e111ab651ef	-0.12640584759050408
17	0x3ff3b0b0efe324f3	1.230637490329454
18	0x3ff3d36727540dc9	1.239112046839056
19	0x4001fb0a95cdb0c1	2.247578783359217
20	0xbff87ab9058ab507	-1.5299616066434412
21	0xbff87984826d5a55	-1.529667386513798
22	0xbff1c224df1743de	-1.109898444603679
23	0xbff5e034e7f0453e	-1.3672379551029077
24	0x400019dfe8a04893	2.0126341031946793
25	0x3ff1a6b7eb667eb2	1.1032027430846196
26	0x3ff5fa000986d654	1.3735351917397525
27	0x3fe9184046736b3b	0.7842103363030682
28	0x3fc427637e12a4c8	0.15745204597377538
29	0x400163e724a7203c	2.1737807143690855
30	0x3fe99e58ec6b19de	0.8005795114084397
31	0x3fe861890bd70070	0.7619061690566138
32	0x3fd35c04c89c2aad	0.3024913748819625
33	0x3ffa3275a5f46416	1.6373192293742753
34	0x400136e30005026f	2.1518001557854443
35	0x4000a6435f5677e9	2.0811831901801168
36	0xbfd3cbf53ec8e706	-0.3093236077435083
37	0x3fdf6c4ad91e87bc	0.4909846420579205
38	0xc0046bf43e30e0ca	-2.5527119501749427
39	0x40013d47a35d03b9	2.1549217951546464
40	0xbffb971977db2bfe	-1.7243895227318258
41	0xbffa3dce46f68410	-1.6400892993917786
42	0xbfe9515f7a267fd6	-0.7911832223653572
43	0xbfeaf09d72768a88	-0.8418719516378852
44	0x40002d6eb01a1194	2.0221837766604924
45	0xc0034abde6013d5d	-2.411495015061219
46	0xbffe5ad8c82b2294	-1.8971793955881013
47	0xbff48080f3efa2d8	-1.2813729790452069
48	0xbffd6284032d18df	-1.8365516780918865
49	0x3ffdbb98d2e2aff7	1.8583000409807917
50	0xbff76b78876989cc	-1.463737992242943
51	0xbfec2df91bd7aa8a	-0.8806119483754895
52	0xbff5b611a8c573c0	-1.356950434935456
53	0x3fd67a34d76a0e12	0.35120888744879253
54	0x4000bbe0ce8aa258	2.091737378698138
55	0x3ff5bab51ab9675f	1.3580828708567976
56	0xc000a87188e72e66	-2.0822478004027287
57	0xbfc51af7132fbad6	-0.16488541066015355
58	0x400208526f1ac695	2.2540634803816126
59	0x3fffdde9e6ee495e	1.9916781445250176
