data/fairness_output/LFR/model_params/model_parmas_2.npy (npy, 608 bytes, 1 tensors)

array f8 [60]
0	0x3fe7097f0b0bd546	0.7199092117067856
1	0x3fe8f78e92077fe6	0.7802193500647234
2	0x3fdbe9b2b24ca3e1	0.4361387959675636
3	0x3fda6dc3d7e3ebca	0.4129495247177003
4	0x3fda024ebbbf408d	0.40639084181476265
5	0x3fe51d321c739cb2	0.659813933915663
6	0x3fdfc5365667a027	0.4964118808552506
7	0x3fe7c74406468b2e	0.7430744288034015
8	0x3fe513a67dc38fae	0.6586487251593007
9	0x3fd67f8a29673c9f	0.35153440516746487
10	0xbfeb12b4496ff946	-0.8460332331012885
11	0xbfe7e05f5f9483d1	-0.7461392275619066
12	0x3ff0a3e12fe60363	1.0400096770319684
13	0xbff1a4e6e3bf821d	-1.102759256020483
14	0x400156a974427a1b	2.167315395621029
15	0x3ffe60135a3dfedd	1.8984559559902927
16	0xbff021f956bacd9a	-1.0082944286230942
17	0xbfd416180e3d1064	-0.3138485087440641
18	0x3fcb94eaf331d45f	0.21548210978258717
19	0x400389477108ceb1	2.442030795174866
20	0xbfe91c3b0c02475d	-0.784696124510656
21	0xbfef0c3636e688fa	-0.9702406952167444
22	0xbfd500325f120795	-0.32813700947019103
23	0xbf8e4a0f1f75b463	-0.01478969397313729
24	0x4000d1a02d2d47d6	2.102356293625216
25	0x3fd14657833e76cf	0.26991832558438217
26	0xbfcb5ba3dfed5cca	-0.21373413499779864
27	0x3ff44d76ae822872	1.268912011788896
28	0xbfeee12cdeb3f39a	-0.964987215964004
29	0x40012143d228295e	2.14124263939918
30	0x3ff3921cc5607253	1.2231719694165306
31	0x3ff376511d2b3ff2	1.2163859500324148
32	0x3fd748849a235f03	0.36380114605479735
33	0x3fdeb9cc2f4f5b8a	0.4800901853572489
34	0x40028007dfe5e0ea	2.3125150196102497
35	0x3fd92ed7a24ed96a	0.3934840283431159
36	0xbfe230001e089db7	-0.5683594309420447
37	0xbfe068711ad38522	-0.5127492450666618
38	0xbfe14101120b74e1	-0.5391850807606283
39	0x4000e0aa88ce5715	2.1097002685518285
40	0xbfd734fcd8427bf7	-0.36260911101447796
41	0x3fd8525f51384dfa	0.3800276082194781
42	0xbfe50a202307b341	-0.6574860271626691
43	0xbfaf3ede5752604a	-0.061026523742100894
44	0x4000ffd0b762e6f5	2.1249098136003064
45	0x3ffcdc01076d3ae0	1.803711918840854
46	0xbf9ab928ad5dd5a6	-0.026096950131849227
47	0x3febcd4792a1c7a2	0.8688085426240273
48	0x3fe3e99a97af2bc9	0.6222660982688178
49	0x40045f93684b0049	2.546667876042225
50	0xbfe7116ff2d49934	-0.720878576544044
51	0xbfe3c1ef41090478	-0.6174236555308559
52	0x3fee52f4826da868	0.9476263568333367
53	0x3fe739404224c5db	0.7257386485927627
54	0x4001d85e18796f41	2.2306482231196303
55	0xbfefe4b7e5f0e06c	-0.9966697207482986
56	0xbff20adb0e1d0cec	-1.1276503135020972
57	0xbfd41fb32260464e	-0.31443479878462177
58	0xbf7810a156693fc3	-0.005875234818247979
59	0x4000837deab121b9	2.064205010920173
