data/fairness_output/LFR/model_params/model_parmas_4.npy (npy, 608 bytes, 1 tensors)

array f8 [60]
00000000: f376 842e db1d e53f 1832 8bc2 f59c e03f
00000010: c002 e7a6 28c9 d43f 6f11 d60f ebcb d53f
00000020: 8bda 5fb2 382f c53f fbf9 0350 44f4 e83f
00000030: 1b5c a7e5 5513 e33f 41b8 216b 012a d63f
00000040: b3c9 d27d 4411 e43f 8e4b d0a9 5588 e93f
00000050: de40 0766 d3e0 dbbf e4cf 9541 0aed e43f
00000060: 414c bedd 5adf e53f d85a b7db 18e6 ed3f
00000070: 2d5d 5ee6 af9b fb3f 6572 defd 043f d63f
00000080: 2498 2f26 cce3 dc3f 24ce 0d4c db49 df3f
00000090: ca42 ef48 62b9 e23f 9c46 bf99 8895 fb3f
000000a0: 3f08 4005 3933 e6bf 4563 0445 4221 efbf
000000b0: 0590 0545 867e c63f 1796 46b2 1ba7 c33f
000000c0: f25d ecbc 8e2b fd3f 1feb 74c2 a98e e53f
000000d0: 137d 52e2 0a1f f03f 3028 4de7 3809 f53f
000000e0: 1751 514f 192a d83f 0bde 3de1 71a9 f83f
000000f0: 8af6 0be5 4146 da3f 4633 5582 c3d1 c63f
00000100: 6dbe b285 d6dd e9bf d21f a692 be86 f13f
00000110: 6274 88e5 1dbc fa3f b8f7 cea4 96ec f3bf
00000120: 8d13 555b 36c8 f1bf 4dba 2b61 7285 e2bf
00000130: d274 813b ec99 f2bf 5da6 788b f4eb f93f
00000140: 7f6e ae30 31e2 f1bf cdd7 9697 97e5 e3bf
00000150: 57e7 7951 ecda f0bf f938 2af9 38d1 c5bf
00000160: 3048 bc12 ff6c fb3f 60ba cfb8 d967 663f
00000170: 0c5a 8dcb b05a eebf 3d95 e2a5 fcff debf
00000180: 8e72 6ffe dcbe df3f 3c12 e02e c4ed fc3f
00000190: 0ace 9c81 9085 f5bf 6d10 b31c 982b f1bf
000001a0: a71a 2a16 d522 f8bf 8dd1 9318 3f5d f2bf
000001b0: 841e 4fc7 1c59 f53f 8bb9 ef7c 0f5c fabf
000001c0: ca8e f502 6cd1 bfbf 96d4 cd7b c0d6 dbbf
000001d0: 8ef0 8ee6 afd1 b9bf eb59 8cd5 9487 fc3f
0.6598945530456305 0.5191601562197006 0.32477775858937363 0.3405711798334527 0.16550358495415582 0.7798177302173025 0.5961102948593892 0.3463138147552663
0.6271078546035852 0.7978924099610241 -0.4355972763414807 0.653935554596043 0.6835150080609155 0.9343380252201667 1.7255095480703162 0.3475964049519347
0.4514036534222916 0.48888285090581207 0.5851298737053068 1.7240072255848764 -0.693752775434639 -0.9728099201193819 0.1757362210292969 0.15353723721379772
1.823134172422098 0.6736649320585889 1.0075787392341382 1.3147515330515596 0.3775695108972896 1.5413683699133596 0.4105381714615325 0.17827648033053317
-0.808329831246693 1.0953965881799275 1.6709269491323302 -1.2452608526068456 -1.1113799636525272 -0.5787898919932758 -1.162578804439637 1.620106262979241
-1.1177226926437525 -0.6217763863303333 -1.053448026911118 -0.17044746557480275 1.7141104442457724 0.0027350666409724916 -0.9485706306102784 -0.4843742008182124
0.49602436873627986 1.8080484229150349 -1.3451085150708217 -1.0731431122849486 -1.5085039964484765 -1.1477652511649439 1.3342559609899647 -1.6474757080391977
-0.12428927490469302 -0.43498241510617086 -0.1008558214079491 1.783100923703041
