data/fairness_output/iFair/model_params/model_parmas_3.npy (npy, 656 bytes, 1 tensors)

array f8 [66]
000000 1c 77 a1 19 c5 a3 eb 3f 1d e8 39 3a 50 7d d4 3f
       0.8637414455986092 0.3201485222449508
000010 ed 89 83 52 a6 5b e5 3f c3 2f bc d0 09 48 e9 3f
       0.6674377070997345 0.7900437428338524
000020 44 99 f7 97 cf 75 c4 3f 95 e3 a9 66 28 0a eb 3f
       0.1598453037287958 0.8449899678372385
000030 71 ba bd 9d 53 e4 f9 3f c6 ee 47 c1 60 d2 eb bf
       1.6182438050997485 -0.8694309020060806
000040 be 5f c7 6d b2 84 f5 bf b1 b1 85 da 06 bb 02 40
       -1.3448967254862363 2.3413216659593776
000050 15 3f cf cf d4 e2 c1 bf e5 27 af e6 65 99 c3 3f
       -0.13973484179450027 0.15311883701207232
000060 7f 11 64 95 9b bf 16 c0 c1 a6 76 87 3e 00 f7 3f
       -5.687116941673934 1.4375596324484123
000070 e6 61 e2 d8 36 37 01 40 7d 94 76 20 8a 63 ce 3f
       2.1519600814901763 0.23741270623319002
000080 3f c6 80 30 c6 76 f6 3f fc 20 89 2b cd 4d e5 bf
       1.403997601952497 -0.6657472467714167
000090 09 44 87 b5 b1 a3 14 c0 1c 01 4c 74 e4 d4 f8 3f
       -5.159857593899695 1.5519756834838239
0000a0 37 49 e6 ef 03 db f9 3f 82 fa b8 62 58 5e d7 3f
       1.6159705515934328 0.3651333774650213
0000b0 c5 77 80 7b 93 0a f7 3f 7c 9d de 6f fc 7e da bf
       1.4400820564546717 -0.41400061535610866
0000c0 70 18 cc fa c0 71 0c c0 34 fc 79 05 a4 9e f3 3f
       -3.555543860772609 1.22623064173946
0000d0 ef 40 41 02 6a 3d fe bf 1b ac 06 c1 ff 69 00 c0
       -1.8899936760026852 -2.0517573433076115
0000e0 07 ca bb 7b 69 b0 fd 3f c9 63 8e 9d e0 77 ed bf
       1.8555693467466214 -0.920883472182248
0000f0 56 9b 37 b7 eb d9 22 40 ba f1 7d b7 06 ec a9 bf
       9.425626493013322 -0.05062886228458603
000100 d2 71 64 88 0c 3a e9 3f 95 53 d6 f6 1e 04 f5 3f
       0.7883360542214695 1.3135060922697666
000110 64 78 31 ac 1e 42 e1 bf ef 9d 5d 03 6c 31 ff 3f
       -0.5393212664746554 1.9495658999893484
000120 ee 34 81 c9 b8 dd b6 3f 00 03 78 f4 ca 88 fb 3f
       0.0893207065539234 1.7208966779291472
000130 3e 27 e2 28 65 bb 01 c0 dc fd d0 2d 14 04 0a c0
       -2.216501540567065 -3.2519916133312403
000140 80 bd b9 a3 03 2f f2 3f c0 ca 62 36 dc a1 ee bf
       1.136478080323144 -0.9572583257889491
000150 56 6e b9 ce 99 ba 12 40 5c 0d 08 0f 4e bf ef 3f
       4.682227354114351 0.9921026509841044
000160 aa ed 44 e7 60 40 0d c0 40 d2 9c d9 d4 86 fe bf
       -3.6564348285589476 -1.907917833375123
000170 d2 bc ef 6e c2 b6 e6 bf fb 2f 11 48 f7 34 01 40
       -0.7098095099189783 2.1508622770543275
000180 b4 ba 37 40 29 e6 10 c0 4b 70 73 b3 61 94 fe 3f
       -4.22476673450608 1.9112259874155082
000190 a1 46 03 88 e5 99 05 40 d5 1e 34 5a d7 4e e5 3f
       2.7001448274612163 0.6658741723813032
0001a0 f4 9b de 4b 7c b0 e8 3f 10 92 69 7f c4 2d d1 bf
       0.7715436441256984 -0.26841843073478433
0001b0 ce 90 a7 78 c1 f3 26 40 27 37 88 a5 a8 9c f9 bf
       11.476085443930426 -1.600746771440251
0001c0 88 31 d3 0f d0 dc 04 c0 44 39 bb ad a5 68 01 40
       -2.6078187214208732 2.176097256923784
0001d0 ca f6 67 90 f4 75 c4 bf b8 52 5f aa e0 a6 03 40
       -0.1598497109516102 2.4564832029667194
0001e0 50 bf 54 18 5c 95 fc 3f db d9 ad 5a b8 c1 d0 bf
       1.7864647818023123 -0.26182373862630265
0001f0 70 3e fd 22 17 99 01 40 2b 11 93 2d 5b 66 00 40
       2.1997511609586624 2.0499785957819276
000200 14 2b 14 a9 b0 75 ce 3f cc 1d ed 7f 03 b6 e6 3f
       0.23796661620902937 0.7097184656676574
