data/fairness_output/iFair/model_params/model_parmas_5.npy (npy, 656 bytes, 1 tensors)

array f8 [66]
0.017058034840138805 0.008817583020738392 0.0 0.7275953238988422 0.0 1.0 -0.9169488912263641 -1.2957149417584348
1.3267823163388521 3.753394475151678 1.3441038094859599 -0.5648764810322394 -0.9408234653545949 -0.0666595569017228 1.5064800057846006 2.7793049029664822
1.0481974578319933 -0.6622436986637156 -1.3451075160749413 -0.5710712797393873 1.5863214557348253 3.6405431478830277 1.727270923417029 -0.3912657447529014
-0.6958381863860327 -0.4563792716014608 1.355146790659583 4.564692460963596 1.392453274632718 0.0256245363744139 -0.3536428733212509 -2.846907920329848
-1.6483299572163972 -12.042190243181388 -1.8508873433971613 1.6534502602428411 1.8369937378516648 3.6489699563768108 0.8006071706366928 1.7747307835413555
0.48687445700816934 1.09131169961929 -0.6255953080394017 -2.697400696363008 0.5368415393049798 5.894184916692245 1.6785789580879797 1.0626493199913856
2.070723795972236 3.693374444292664 0.31052212202090845 -2.5198143889860187 0.3334325579598535 0.9638498624786669 0.3797875482496972 -1.3105066299840311
-0.6178972546787185 -6.4289610290808215 -0.8251691915904401 1.023782591445273 1.8677596605826468 3.805166899445391 -0.009197664517689516 -0.3040103269028047
0.35893917005135134 0.2860736516478751
00000000: 84f6 1657 a977 913f eb74 a1f5 f30e 823f
00000010: 0000 0000 0000 0000 1ac7 1bfd 7548 e73f
00000020: 0000 0000 0000 0000 0000 0000 0000 f03f
00000030: 5676 7d33 a557 edbf 07a8 3c97 3fbb f4bf
00000040: 4a62 1918 803a f53f bc1b beae f306 0e40
00000050: 49bd 02ff 7281 f53f 5d04 8ad7 7713 e2bf
00000060: 693c e0cf 391b eebf 13d7 dbc8 9910 b1bf
00000070: 96c3 4ec7 8a1a f83f f5d3 7e35 043c 0640
00000080: 5238 92b2 6ac5 f03f 81c4 77b2 1931 e5bf
00000090: a754 7275 8f85 f5bf 124c c546 3746 e2bf
000000a0: de2f 559b 9261 f93f 0cad fe15 d51f 0d40
000000b0: 9886 f6d5 e6a2 fb3f 1990 707a 7f0a d9bf
000000c0: 35c0 ba71 4e44 e6bf d56f 8667 5135 ddbf
000000d0: a698 b266 aeae f53f ad8b 90bd 3e42 1240
000000e0: 1017 bc15 7d47 f63f 0a26 d086 513d 9a3f
000000f0: 2435 d8b7 15a2 d6bf 1152 e4a8 77c6 06c0
00000100: 202f b43b 8f5f fabf 4459 a5f5 9915 28c0
00000110: bf89 070c 3c9d fdbf 1de4 9442 8874 fa3f
00000120: a479 b08b 5364 fd3f b2cc 1529 1731 0d40
00000130: 6a7c daed 929e e93f b53b 281b 4c65 fc3f
00000140: f0e6 867b f328 df3f 61b6 b941 0376 f13f
00000150: c8ed 9173 e004 e4bf a8b1 f8d0 4694 05c0
00000160: bd5f ce4e ce2d e13f 2614 f735 a593 1740
00000170: b5dd 0b9c 75db fa3f 9bac c792 9c00 f13f
00000180: 73ff 35a3 d790 0040 0df4 90e6 078c 0d40
00000190: acea b02d 98df d33f 3c7b 4572 9428 04c0
000001a0: 0efd f682 f556 d53f f832 b3aa dbd7 ee3f
000001b0: 2a45 ca6e 704e d83f b78f cfcc d5f7 f4bf
000001c0: d243 a476 d0c5 e3bf 7da4 5c8f 41b7 19c0
000001d0: bf86 7138 c967 eabf 948b c7da 6961 f03f
000001e0: 34d9 2ff4 57e2 fd3f 7484 e757 fb70 0e40
000001f0: aba8 6ca2 39d6 82bf 7867 ecba e774 d3bf
00000200: 94ee 27ff dbf8 d63f 7ecb 84dc 074f d23f
