data/fairness_output/iFair/model_params/model_parmas_2.npy (npy, 656 bytes, 1 tensors)

array f8 [66]
000000 c8 a7 ef ca 7e 6b ed 3f 0b 58 da b1 19 b6 de 3f
       0.9193719829174762 0.4798645245404038
000010 4c 65 e0 e5 d7 d1 e0 3f 69 b7 c1 32 f9 19 ef 3f
       0.5256156434799464 0.9719205848066227
000020 20 f9 d8 c7 d6 8e dc 3f 16 ff 19 6f b5 fe 77 3f
       0.4462181998859638 0.005858143545651525
000030 6e 80 4e 5b 8f 16 0b 40 f4 1e f2 07 e2 ed a3 bf
       3.386015618642026 -0.038924277753776965
000040 20 36 b9 ad 90 3a d5 bf c2 b3 7b 1f 87 fd 02 40
       -0.3316995331304913 2.3737928828836354
000050 fe ca c1 71 c7 8c a3 3f 2d 23 1b 05 22 70 eb 3f
       0.03818343413958834 0.8574380969740553
000060 95 7a 79 25 2a d6 03 c0 b3 6c 6c 6f c4 81 ab bf
       -2.4795725753495597 -0.053724421121125764
000070 11 10 79 62 9e f2 fa 3f 7c c8 ba bd 3b b0 0a c0
       1.6842330786321364 -3.3360514471651737
000080 b2 0a 4f 84 73 e8 f2 3f f7 ca 57 35 00 10 ba 3f
       1.1817507904349154 0.10180665304487123
000090 63 91 a5 70 de e6 06 c0 50 75 34 3b a7 d0 fe 3f
       -2.862728958180172 1.9259407341663355
0000a0 95 83 b1 af fe 55 f1 bf 53 64 41 b7 f0 9a f1 bf
       -1.083494840910338 -1.1003272207656394
0000b0 6c ca 80 c0 de df f2 3f d5 d2 40 97 c8 34 e3 3f
       1.179655792203131 0.6001933054127117
0000c0 43 57 77 57 90 ed f0 bf 51 e1 47 13 3a 59 ff 3f
       -1.0579989830634566 1.959283900561861
0000d0 5e 0d 2f 4e e3 29 0d 40 bf e9 37 d9 61 15 f0 bf
       3.6454530819043347 -1.0052202687353284
0000e0 0a 48 b1 45 84 52 db bf 4e ca 5b 3a fb 89 d9 3f
       -0.42691141897114504 0.3990467138202448
0000f0 da f2 34 d8 ae 7a f0 3f ed 80 7a c4 9c fe f7 bf
       1.0299519010142633 -1.4996612238829201
000100 f8 00 37 9e 93 24 21 40 bd 17 dd 2b 51 1a fa 3f
       8.571438736166314 1.6314250672744344
000110 41 d3 75 8b 76 d2 f8 bf d9 01 f6 f2 92 af f0 bf
       -1.55138258434927 -1.0428647509253237
000120 85 8e e6 72 78 05 f3 bf 67 82 88 5f a7 56 b6 3f
       -1.1888355720811046 0.0872597320781182
000130 ca 16 31 a4 83 f2 11 c0 ba c9 d3 b1 46 6d e5 bf
       -4.48683029698959 -0.6695893738927261
000140 7c 78 b4 b6 f5 8e fc 3f 45 d1 10 d7 70 3a fa 3f
       1.7849022995865473 1.639267768955578
000150 3a 84 af 3f 28 09 f0 bf c8 a1 d2 1c 88 6d ff 3f
       -1.0022356498450464 1.964241135205258
000160 10 9e 9a 7c dc eb 04 c0 37 e0 3f f2 55 a6 02 40
       -2.6151666388211723 2.331218617033325
000170 2e 9b 22 01 0e 15 e6 3f 87 31 77 f8 ea 0d eb 3f
       0.690070154397153 0.8454489567607631
000180 86 e1 98 d6 a1 2f 09 40 b0 12 9f 13 40 bb 03 c0
       3.148257900753552 -2.466430810253165
000190 17 c5 b8 43 3f b1 0e c0 fe 5f 0f 1e c6 b1 01 40
       -3.8365464487802785 2.2118036602441853
0001a0 be dc 11 4a 89 1e f4 3f b2 ef ef b9 dd 36 f2 3f
       1.25745514806276 1.1383950484441638
0001b0 ca e1 04 39 94 06 0d 40 36 db 3e 82 e8 4f eb 3f
       3.628212399922835 0.8535044235094122
0001c0 af 06 61 7c e1 f6 07 c0 83 b9 4e ef dd b5 ec bf
       -2.995547267638208 -0.8972005533194508
0001d0 32 a4 8d 7c 92 ea db 3f 57 2e d6 40 34 21 fe 3f
       0.43619215167433645 1.8831064732247762
0001e0 74 ea a2 b2 6b cc 00 40 0b da b3 b6 03 29 dc bf
       2.099814792248532 -0.44000332681699267
0001f0 d5 67 59 6f 52 90 04 40 25 4c af 65 c6 3b ff 3f
       2.570469732204382 1.952093503194882
000200 81 b7 80 25 2e dd ce bf fd 40 f2 c4 30 57 a7 3f
       -0.24112488585654648 0.04558708576326074
