data/fairness_output/iFair/model_params/model_parmas_4.npy (npy, 656 bytes, 1 tensors)

array f8 [66]
0	0x3fef3ed5e8c0801b	0.9764203592239967
1	0x3fb28a1471495583	0.07241943136008015
2	0x3fdb3e0760b1b668	0.42566093867103527
3	0x3fea6a5f4c7700e3	0.8254848950819248
4	0x3fe7f8523deb953e	0.7490626534824185
5	0x3faec7460c37deb9	0.06011408709667649
6	0xc006842b0c98cdd8	-2.814535234845362
7	0x3ff27f96ab045776	1.1561495476102812
8	0x4019665c0a212fd8	6.349960478091781
9	0x400a978c0d01f70b	3.323997594473331
10	0xbfdd0e007ea2e2bc	-0.45397961012671906
11	0x3fdcf9602799cd2b	0.45272067897095053
12	0xc00d6003b121d055	-3.671882041782775
13	0x3ff88460362033a8	1.5323183168686487
14	0xc0109235596baffd	-4.142781636426659
15	0x4011a71503a6d7ad	4.413166100557572
16	0x3fdc46124b5a8c01	0.4417768226505246
17	0xbff531b4cc076571	-1.3246353120688037
18	0x400483efcde2a351	2.564422234038297
19	0xbfbdabe07ffc2d79	-0.11590388416896315
20	0xbffcc9a52f6bf8ec	-1.7992297985470556
21	0xc01db01a45805d86	-7.421975217780874
22	0x3fdb5d6be8f19f79	0.4275769972650703
23	0x400246178b731064	2.2842245954980616
24	0x400678d2eb47ef7c	2.808996046192929
25	0x3fe33b7d60014e5b	0.6010119319057127
26	0x400509a13db362a6	2.6297020740861
27	0x40000b9b623079d1	2.005667464355817
28	0x3fc3dc1d4f0acb31	0.15515486106377233
29	0x3febad0659fc313b	0.864871192695808
30	0x3ff5c36d9409f16e	1.3602119238631434
31	0xbfcb2d5f647c31c3	-0.21232216269016932
32	0x3ffc40a1b6f4daea	1.7657792231308869
33	0xc0197a51365e8ca0	-6.369450425644715
34	0x3fb8a45b6fd96b4f	0.0962578914708676
35	0x40015164afd28325	2.1647428260915995
36	0xc0064aa9cceb564f	-2.7864566811865994
37	0x3fef30d363f39c9c	0.9747101738147594
38	0xc0058db759c87ae4	-2.694197369986215
39	0x3ffdf49f890ecfc8	1.8722224572966173
40	0x3fd4ecd13097cedd	0.3269541716137903
41	0xbfdc323efd384793	-0.4405667755937596
42	0x400986e5531608d1	3.19086708937639
43	0x3fce65c377cdc9c9	0.2374805769901072
44	0x40020e4aa240b261	2.2569782901758093
45	0xbfe4619fdf6b8953	-0.636917053572953
46	0x3fe39d79321f26df	0.6129728297175595
47	0x3ff26dd5f5800b39	1.1518153753138007
48	0x3ff57d25bfc5890d	1.3430535784796718
49	0xbfd59df64c2e16da	-0.3377662414498964
50	0xc0119f340506c07b	-4.405471876656629
51	0xbffc241712f86b4f	-1.7588110676794775
52	0x3fefd607024a2f98	0.9948763890001713
53	0x3fd5cd8b4ca977d5	0.3406704186107821
54	0xbff3abd107e0ca9d	-1.2294473941553072
55	0x3ff17076487ee6bb	1.0899565536368943
56	0xbfeff5485fd812a5	-0.9986917373613166
57	0x401a2bf9cec9042c	6.542945128459035
58	0x3fc14f3af427d7f5	0.1352304165044981
59	0xbff2ac783df5823c	-1.1671068592332992
60	0x4003e5fe2dd68216	2.48730121432187
61	0x3fd77ba9b127f809	0.36692278194811984
62	0x400cd107b8248e0f	3.6020655046611476
63	0xbfe10db2cd864592	-0.5329221738958714
64	0x3fbd032dbbffdeda	0.11332975234824563
65	0x3ff4d2589675acee	1.3013540150957925
