data/fairness_output/iFair/model_params/model_parmas_1.npy (npy, 656 bytes, 1 tensors)

array f8 [66]
00000000: 4eaf 8377 39ba d13f 9feb 5a70 7345 e93f
00000010: a357 fdc1 6a95 d53f 59ec e905 7ed3 e83f
00000020: 9fee 90ef b7e9 c73f 2ae3 1f80 e748 a93f
00000030: 85a5 7d33 d49a 03c0 29f7 5f77 102f d23f
00000040: 2ede 1da0 e82b 26c0 ea9f 6502 9447 0c40
00000050: 4cd4 c39a 5b36 debf 6855 40ad 9721 0540
00000060: 9e4c 4062 cca1 e03f a36d 9975 11c0 0840
00000070: b038 40dd 0363 20c0 343e b18b b98a b3bf
00000080: f03b 5e26 781f ef3f 48ad 4845 f4d5 fb3f
00000090: eda6 fa7d c0f3 0340 1a55 108a 9651 0040
000000a0: 5742 94a2 0276 0ac0 5ddd eff4 e197 fd3f
000000b0: fd5f 47f4 b327 e23f 585c 9940 88c6 f43f
000000c0: c7a9 9de1 9025 0bc0 575f 8b36 d87a 11c0
000000d0: d954 be86 9b52 1640 cd53 f3fa 4e73 0440
000000e0: d300 faf3 faca c33f 5e86 1f87 c791 cdbf
000000f0: 2afc 0cb6 969b 04c0 18dc d6d8 137e f3bf
00000100: e5ba ba73 d48f 0740 f514 7c64 9397 f53f
00000110: 6cbd c5a9 7d37 e63f 10ac 6142 2863 d5bf
00000120: 10db aca9 7de6 1240 8296 8d8e d422 0740
00000130: 7e14 5d80 39d9 c13f f24b c2da e9f0 ffbf
00000140: ef4b a639 65df e03f 3be1 b7d5 3bfb ea3f
00000150: d454 6a27 c3fe debf 0a10 7a8d 79c2 f4bf
00000160: d019 b907 7d63 1640 3d85 e02c 6f3a f63f
00000170: 329c a42a 648c eb3f 41c4 7182 2f41 d33f
00000180: e079 588d 333e eabf 26db 1a21 c576 f4bf
00000190: b0dd 0df8 457d 1640 e48c 4e59 5b7f f73f
000001a0: 86a5 df14 1573 b0bf 70e5 722d 403a d8bf
000001b0: 387c 085c fd55 f43f 159b cafc cef8 d73f
000001c0: 10ec ae15 9585 1440 277c c2ee fbb2 0ac0
000001d0: 943a beb1 680b f13f 416f d803 8308 e6bf
000001e0: 6ece b3de aee8 0f40 963b 82db 60b0 0040
000001f0: 2f4e 16f0 4869 0340 48b6 b2df 8d43 04c0
00000200: 9065 709e a2d2 e53f 6ad6 67a5 75f7 ab3f
0.2769912402279616 0.789727897113483 0.3372446913175457 0.7758169284346749 0.18682002255979044 0.049384340658383444 -2.450600054046563 0.28412257821752235
-11.085759166379912 3.5349502742064844 -0.4720677386642975 2.6414025817163527 0.5197507780998369 3.093783301110038 -8.1933888569732 -0.07633552227456947
0.9725914716126436 1.7397349077608215 2.4940194933050095 2.0398379122003805 -3.307622213506231 1.849580723557515 0.5673465510435559 1.2984697841073025
-3.393342745422362 -4.369965412384622 5.5806714109105195 2.5563029866702665 0.15463196671408372 -0.2310113343983628 -2.575971052428504 -1.218280646351337
2.945229438911485 1.3495057988341703 0.694273788058053 -0.3341770790345331 4.725088740515972 2.892006982513352 0.1394416691565858 -1.9963167710563963
0.5272699476212191 0.8431681799111524 -0.48429945801883645 -1.2974792028844626 5.597156639740618 1.389266181279097 0.860887606894613 0.300853612315283
-0.8200929413467826 -1.2789965909157188 5.62233722290641 1.4685929764316876 -0.06425601729974603 -0.37855534017906844 1.2709935755772346 0.3745610684076593
5.130451525498771 -3.3373945859052756 1.0652853911484828 -0.6885390353304289 3.988614787924056 2.086122240936173 2.4264086491400785 -2.5329854465879045
0.6819623083603563 0.054622341576686065
