data/fairness_output/gFair/model_params/model_parmas_2.npy (npy, 568 bytes, 1 tensors)

array f8 [55]
000000 00 00 00 00 00 00 f0 3f 00 00 00 00 00 00 f0 3f
       1.0 1.0
000010 e1 34 e0 a7 3a 92 da 3f aa 60 a4 bb 32 2d d7 3f
       0.41517511743661656 0.36213367771552873
000020 5f 4b 98 b5 93 31 ed 3f 05 a5 48 e5 fc 15 f9 bf
       0.9123018786216156 -1.567868133201331
000030 25 5a 26 5b b4 50 e2 bf a3 55 67 88 60 ad 0a c0
       -0.5723516254682336 -3.3346567780051415
000040 be 6f 77 41 07 86 f0 3f 59 9b 54 18 d7 16 e6 3f
       1.032721763352114 0.6902881121830929
000050 de bb b5 1e 87 5f f9 3f fd 6c 93 bb b4 c0 f0 3f
       1.5858222198109995 1.0470473601515657
000060 65 a8 4a 9b 2a f7 d5 3f 67 1f 4c cb 30 a7 de bf
       0.3432108418006748 -0.47895450452096217
000070 aa 5d 5a 35 b3 ec d3 3f 61 3d 3a cf 76 06 fc 3f
       0.3113220234895048 1.7515781493019278
000080 90 dd db ca ba 86 df 3f cd fc 09 59 8b c6 0b 40
       0.4925982457202389 3.4719454723523087
000090 84 57 cc 30 6c 15 f4 3f 1c 82 ca 1c 7a 7f d5 3f
       1.2552301317386716 0.33590557872415316
0000a0 02 2e 22 e3 42 76 fb 3f cf dd 26 79 7b 30 f1 3f
       1.716372382393161 1.0743365032666252
0000b0 e6 ff 50 b6 53 c4 08 40 27 fc a4 44 78 c4 f0 3f
       3.095862793299591 1.0479662591385563
0000c0 50 dd 59 04 0b f1 ea 3f 8f 97 51 18 d2 f4 f9 3f
       0.8419241986256711 1.6222706747007327
0000d0 3d ad 10 c0 ef 46 c0 bf f5 df b2 70 d4 0d 03 40
       -0.12716481092625456 2.381752853831126
0000e0 07 61 61 25 e6 ce b2 3f 94 85 9a 1a 77 20 ce 3f
       0.07346952831847285 0.2353657607937235
0000f0 ea 06 18 97 6d 0f f9 3f 53 dc 4e 57 97 78 f2 3f
       1.5662666227439623 1.1544412050696067
000100 dd 7f 1e f8 8c 78 09 40 70 b5 1f 0c dc 82 e3 3f
       3.183862627440233 0.6097240673822579
000110 3f 6b 2a 6b 14 a6 e3 3f ec 3f 77 82 55 14 f9 bf
       0.6140234082298334 -1.5674643608399448
000120 84 39 87 b5 b9 09 f5 bf 70 10 a2 84 1a c4 11 c0
       -1.3148743716188571 -4.441507408515562
000130 a1 f4 85 f4 54 dd f0 3f fd 94 a1 06 07 49 c7 3f
       1.0540360976877212 0.1819161207560355
000140 a2 71 1f 70 ca ef e6 bf cb f0 f1 14 93 f6 f5 3f
       -0.7167713346384981 1.3726988619010168
000150 9e 8c 20 f5 66 a4 f7 bf 64 f3 b1 01 3b e6 ca 3f
       -1.477637250450051 0.2101510771061853
000160 b2 37 da 2d 9c 08 ee 3f b6 01 3d bb 5c cc f1 3f
       0.9385510345034531 1.1123931230541593
000170 3a 22 a3 db 8e 16 fe 3f 53 3a df 6f 9b 96 e8 3f
       1.8805073337154128 0.7683846650123293
000180 67 4f 75 23 05 6c ba 3f 54 7e 74 aa 19 d3 90 3f
       0.10321075549773938 0.016430283573866625
000190 8b a9 20 db 7e ea 00 c0 d3 57 7d 50 fe 03 f4 bf
       -2.1144997710554825 -1.2509749549985727
0001a0 fa 15 62 d3 39 d4 11 c0 04 70 26 94 db 7d d3 bf
       -4.4572518375985 -0.3045567461756493
0001b0 c0 13 20 c8 b8 c7 c3 3f
       0.1545325257467578
