data/fairness_output/gFair/model_params/model_parmas_3.npy (npy, 568 bytes, 1 tensors)

array f8 [55]
0	0x3fe6f9410fa9fd1f	0.7179265314042914
1	0x3fa8af7002630762	0.04821348218093992
2	0x3fa835a52fc85968	0.04728428085597863
3	0x3fd3121cac85b66d	0.2979804692066413
4	0x3fcf80b4887d6632	0.24611527123015403
5	0x40040c2d63ace07a	2.5059459483273345
6	0x3fbe990ea56acfba	0.11952296770578999
7	0x3fdc939b6cae298b	0.4465092240649475
8	0x3fe2e0ca067a0dcd	0.589940083169887
9	0x3fdc9998026d9899	0.4468746207916268
10	0xc0038e6c895100dc	-2.4445429542393935
11	0x3ff08eb2a3000a15	1.034838330001212
12	0x3fcd3385a55b186c	0.22813482831969922
13	0xbff87ab2aa8f0200	-1.5299555456587086
14	0x3ff008760f990dca	1.0020657166759173
15	0xbffc34cb88d70e9a	-1.7628894181552028
16	0x3fcae980f1c82aab	0.2102509670806588
17	0x3fe6df21078c9aa4	0.714737429375266
18	0xbfe20072c19563ed	-0.5625547200135067
19	0x3fd554c69bd0345f	0.333299305116105
20	0x3ff64126b5684831	1.3909060560440702
21	0x3fe30282d4642e20	0.5940565250652448
22	0x3fd22f6fb9d1776d	0.2841452898627413
23	0x3ff6a0bc740ffeb3	1.4142422231379157
24	0xbfa35620ec41b437	-0.03776648410789856
25	0xbfff446fb49261d3	-1.954208093031515
26	0x3fe637318de0ee6e	0.6942374964778091
27	0x3fdb9cb1d901d0a1	0.43143888656710244
28	0xbfd0e47ddbca2a48	-0.2639460226425041
29	0x3fee684234a736bd	0.9502268818266298
30	0x4016cbe8a5fe4f71	5.699129670760031
31	0x40010965dc5d1860	2.1295888152990727
32	0xbfd75c022d5e1be3	-0.36499075346404036
33	0x3fe6e245ca43b25e	0.7151211691357948
34	0x3fcbed8399148d3c	0.21818585371611643
35	0x3fe2bd49daa7d5f5	0.5856065054528573
36	0xbfbc9d516f17dbd0	-0.11177548372494006
37	0x3fb5aced2a0f56fa	0.08466989781240022
38	0x3ff83181648b3793	1.5120862891667215
39	0x3fe8da060bc6ebef	0.7766142110843911
40	0x3febb0a79acf9408	0.8653142951631034
41	0x3fa1b9954d2a3eee	0.03461901251750797
42	0x3fd6ae0570ca98d8	0.3543714143255676
43	0x3fe13e15a028927f	0.5388286712737481
44	0x3fc2b7a8c376e81a	0.1462298349777605
45	0xbfe96bc05c48bf9f	-0.7944032480645439
46	0x3fdb7435eb18ceea	0.42896793326074933
47	0x3fed277f83ba6ba3	0.9110715458694937
48	0x3fc16b834a2380e2	0.1360935317998218
49	0x3ff00eb481779d26	1.0035901124300124
50	0x400089ec5c81a7fd	2.067345354754251
51	0x3fd9650759dd9b93	0.396791303405217
52	0x3fe6038a5939ee7a	0.6879321806622578
53	0x3ff1009ffab458f1	1.0626525681632837
54	0x3fc06dca50abf03f	0.12835053385777148
