data/fairness_output/gFair/model_params/model_parmas_4.npy (npy, 568 bytes, 1 tensors)

array f8 [55]
1.0 0.20390662055544898 0.046869943282886115 0.6455045908840795 0.07311515313107554 -1.152484616040421 -0.9407967516817574 -3.1825044348456513
1.0197984484902198 0.33310205742854526 -1.0588653731077549 -0.7269534796238993 -3.8095781117498126 3.2163068133439747 0.3781818146121551 2.460580289242422
0.18685829828187098 2.7183625014579467 1.4250769774421432 0.8754553996758834 0.5580896290446083 1.253778142554075 -2.924863961842459 2.694881836023479
0.9256687553611751 0.13935965465247435 1.4584632479946684 -3.084195525719019 2.8516490663023593 0.17792327010401385 0.7975769625195661 0.047704733146486156
3.508555557841101 -1.781837030853051 0.11683591829684936 0.9048702781534957 -0.5437007142653989 3.1852113772757824 -1.3068194414700005 0.4803692504867447
0.6679451740354023 -0.607755009790509 3.4467131462470233 -2.932243231386462 0.09991063755813692 1.5142950700505913 -0.4489743462966062 2.845477037617331
-0.3612158458906336 0.683479938721135 1.844344634064399 0.8866682663070283 2.9014016362290125 0.1896210943884072 0.355364399896766
00000000: 0000 0000 0000 f03f c99c 5cb5 9c19 ca3f
00000010: 4678 2153 56ff a73f ba7a 683e f9a7 e43f
00000020: 893d 8ab7 acb7 b23f 6d96 70b5 9370 f2bf
00000030: 6fff 14ca 011b eebf d94b 98e2 c475 09c0
00000040: bc6e 8c2d 1851 f03f d8b2 b84a 8b51 d53f
00000050: 96d5 45d1 1cf1 f0bf 6d56 96f1 3343 e7bf
00000060: db2e cc16 047a 0ec0 fcb6 0911 ffba 0940
00000070: 7fdf 6c7f 2134 d83f cfd3 fbb7 44af 0340
00000080: 39ad 0d04 f9ea c73f 217a d3d6 34bf 0540
00000090: 3558 4684 1dcd f63f 6add d60a bb03 ec3f
000000a0: b977 1fc8 dedb e13f 9d59 6bab 790f f43f
000000b0: 19e6 aa13 1f66 07c0 3571 4235 1e8f 0540
000000c0: 9691 e614 149f ed3f 249f 8e83 89d6 c13f
000000d0: 70e1 088f dd55 f73f 3276 2bb4 6eac 08c0
000000e0: 2480 bb62 2dd0 0640 87a5 2591 30c6 c63f
000000f0: d410 421f c085 e93f 8006 7539 c16c a83f
00000100: 3503 8993 8511 0c40 af0c e58b 6782 fcbf
00000110: c845 1570 f5e8 bd3f 8155 7983 b2f4 ec3f
00000120: 869d 520a ff65 e1bf 0bf9 411a 507b 0940
00000130: 0e40 ae80 bbe8 f4bf f00d 36ab 5ebe de3f
00000140: 3e19 c08e ce5f e53f 01f9 60a2 ba72 e3bf
00000150: 0698 8e57 de92 0b40 19c7 75f0 3b75 07c0
00000160: 62af d558 be93 b93f f6c7 a577 8d3a f83f
00000170: cf8f 85e5 febb dcbf e5ae 1077 89c3 0640
00000180: 806c 3911 291e d7bf 82f0 0852 11df e53f
00000190: 41c1 dd84 6f82 fd3f 1112 c620 965f ec3f
000001a0: e450 a10f 1236 0740 03d5 8307 8145 c83f
000001b0: 9d08 ee52 4abe d63f
